old/src/Predictor/checkpoints/best_model.pt (torch, 362276 bytes, 7 tensors)

lstm.weight_ih_l0 f4 [512, 29]
00000000: f8b8 2bbc 80a1 b53a 466e 33bd 365c 333d
00000010: ead0 9bbd 861d 98bd e27f 763d 7f31 a0bd
00000020: e006 083d e2a8 213d f2a9 103d 76bf 293d
00000030: 1767 8b3d b30e b43d a836 c8bc b85f 5f3c
00000040: e475 9bbc d054 de3b 854a 9e3d 60c7 ecbb
00000050: 14cc b7bc a01d 53bb 1946 933d eda8 9f3d
00000060: bc2f 933c bd96 993d 0625 213d 524c 393d
00000070: d6a1 0d3d c88c c2bc 88c2 37bc 266f 80bd
00000080: 77d0 11bd 4873 7abc 6054 f0bb be3b 423d
00000090: d6b2 e2bc d7a2 53bd 85a0 863d 427e 88bd
000000a0: 2b42 953d b02f 96bd 5085 debb 702c cf3b
000000b0: a8bc 93bd d953 a43d fca0 29bd a8d1 20bc
000000c0: 2695 8dbd 80c8 4ebb 0683 83bd b195 973d
000000d0: 41a9 28bd 80bf b93b 6228 403d 48ea 53bd
000000e0: aacd a3bd 82a8 7e3d c034 863c 0c6d c1bc
000000f0: 62de 653d 6025 0a3c 90a6 42bc e47c 8bbc
00000100: c361 853d 392a 9f3d 3c9f b0bc 0025 863b
00000110: 2ee5 323d 5685 263d 0d0d 933d 571c 3dbd
00000120: 87f7 a8bd ce74 9bbd c0e2 0cbb 70c0 6abc
00000130: d056 fabc 8e30 4bbd 579b 96bd d482 7cbd
00000140: 04d0 85bc 1e70 adbd 1420 83bd 0089 c53c
00000150: 3d25 89bd 2780 893d fefd 8abd e1a1 b13d
00000160: 0e4c 243d 6c0c 923c e0d3 b33c 12d9 263d
00000170: 5acc 673d 2c2c 65bd 98ae 613c 481b 41bc
00000180: eabe 21bd 0c5c febc 16ff 473d 0ab1 e8bc
00000190: ba63 163d 0f57 a4bd d097 e83b f2e7 693d
000001a0: 503b f83c 8e69 263d e8f9 74bc 87d9 84bd
000001b0: a7a7 9b3d 8469 39bd eab2 503d 7890 a3bd
000001c0: d0b8 12bc 11db abbd 2096 203b f092 69bd
000001d0: 9799 3fbd 561c 51bd 7dac 8bbd 30c4 09bd
000001e0: 48c5 8c3c 18a0 d1bc b0c8 043d 68d5 ad3c
000001f0: f0dc ff3c 45e9 a7bd 8a61 acbd 991a 963d
00000200: 05be 81bd ddc2 b33d 665d 383d f03f ad3b
00000210: 2035 47bb 045f 9abd 7cd4 acbd b06b 98bd
00000220: b4ab 053d caa9 573d 4808 313c 420f 8bbd
00000230: 78e1 86bd 00a4 96b9 8081 d7bb 126e 003d
00000240: 98ad 013d b041 89bd bce9 9bbd 3881 febc
00000250: 3a13 573d 981c a1bc 0c22 823c c1e8 933d
00000260: 90c0 9f3c 803e 013d c05b d9bb 14aa a5bd
00000270: 39ad 9ebd db7e 9e3d b071 b5bb 7dec b13d
00000280: 60d8 b0bc 019d 5cbd 404f e6bc b8e0 593c
00000290: ed40 a73d 8f04 a23d 74ff 09bd 084b 543c
000002a0: 4674 f8bc a9c6 2dbd 9cf4 6fbd a8fc d83c
000002b0: b4e9 c9bc 3d04 83bd a84c 273c 148d 72bd
000002c0: 0063 af3c c4d8 9a3c 1801 b2bc f06f 3dbc
000002d0: 80df 7c3b 4f16 95bd c3d7 993d 3cea 8b3c
000002e0: c749 b3bd a511 ae3d db55 3ebd 3cfe d2bc
000002f0: 3095 70bd d4f3 eabc 3aa4 13bd 82de 1a3d
00000300: 964f 5ebd 2ff3 983d f395 4cbd fcdd a03c
00000310: 7648 223d 10bf b73b 5ec6 8cbd d31c 46bd
00000320: 5934 ab3d c1e0 9f3d f489 a5bc 5047 1cbc
00000330: 02d4 59bd fe4d 88bd acba a2bd d0ee b03c
00000340: ab73 9f3d 9047 96bd de25 e1bc a0d2 9bbb
00000350: a3f2 973d 23f8 a23d f344 933d 290b aabd
00000360: 488f 73bd c64d 183d 1765 903d d3aa a93d
00000370: 3a9d 393d e620 6fbd 8ca7 dabc 09b8 893d
00000380: 360a a7bd 4abe 523d 5c57 2dbd 2b2a 0ebd
00000390: f994 9dbd a6f2 2c3d 788b bc3c 0f4c 1ebd
000003a0: 5371 a63d 44d9 91bc 2074 37bc cea2 19bd
000003b0: b96a a0bd 3072 6b3c 9af4 57bd 90fb c53c
000003c0: be9e 473d 141b 83bd 98c6 083c 7074 87bd
000003d0: a488 963c 8571 79bd 9e84 613d 64e6 8d3c
000003e0: 96d4 2abd 3a22 773d 608d 82bb c2fa 3bbd
000003f0: a44a d3bc a069 2abb 58af 3a3c acbf 17bd
-0.010481112 0.0013857335 -0.043806337 0.04378911 -0.076082066 -0.07427506 0.060180552 -0.07821941
0.03320968 0.0394677 0.035318322 0.041442357 0.06806772 0.08791866 -0.024440125 0.013633661
-0.018977113 0.006785013 0.07729057 -0.007225916 -0.02243618 -0.0032213703 0.071911044 0.07795892
0.017967097 0.07499454 0.03934195 0.0452388 0.034578167 -0.02374877 -0.011215813 -0.062712
-0.0355992 -0.015286274 -0.007334277 0.047420256 -0.027673166 -0.051668968 0.065735854 -0.06664707
0.07288011 -0.073333144 -0.0067907944 0.006322436 -0.07213718 0.08023805 -0.041413292 -0.009815611
-0.069132134 -0.0031552613 -0.06421475 0.07401598 -0.041177038 0.0056685805 0.046913512 -0.0517371
-0.07998212 0.06217242 0.016382575 -0.023611568 0.056120284 0.008431762 -0.011880532 -0.017027326
0.06512787 0.07771725 -0.021560304 0.004093766 0.043675594 0.040654503 0.071802236 -0.046169605
-0.08250337 -0.07590638 -0.0021497458 -0.014328107 -0.030558974 -0.049606852 -0.073538475 -0.061648205
-0.016334541 -0.0846865 -0.06402603 0.024113178 -0.06696556 0.06713896 -0.067867264 0.08673454
0.040111594 0.017828189 0.021951616 0.040734358 0.05659137 -0.05595033 0.013774537 -0.0117862895
-0.03948871 -0.03104975 0.048827253 -0.028404731 0.0367162 -0.080244176 0.0070981756 0.057105966
0.03030172 0.04062801 -0.01495216 -0.064868025 0.076003365 -0.045266643 0.050951876 -0.079865396
-0.008955196 -0.08391393 0.0024503544 -0.057024896 -0.046777334 -0.051052414 -0.06820009 -0.033634365
0.017183915 -0.025589034 0.032417953 0.021219924 0.03123328 -0.081987895 -0.084170416 0.07329292
-0.063350715 0.087774016 0.045010947 0.005287163 -0.0030396655 -0.07537654 -0.08438966 -0.07442415
0.032634452 0.052652158 0.010805197 -0.067900196 -0.065859735 -0.0002873242 -0.006576717 0.03135497
0.031659693 -0.06701982 -0.07612941 -0.031067476 0.05250857 -0.019666955 0.015885375 0.07222129
0.019501 0.031553745 -0.006633252 -0.080890805 -0.07747883 0.077390395 -0.0055372342 0.08687685
-0.02158755 -0.053860668 -0.028113961 0.013298206 0.081666805 0.07911026 -0.033690885 0.012957342
-0.030328881 -0.042425785 -0.058582887 0.026487663 -0.024647571 -0.06397293 0.010211147 -0.059216574
0.021409512 0.01890219 -0.021729037 -0.0115623325 0.0038585365 -0.07279646 0.075118564 0.017079465
-0.08754306 0.08499459 -0.046468597 -0.025755994 -0.058736026 -0.02868072 -0.03604529 0.037809856
-0.054275118 0.074682586 -0.04994769 0.0196371 0.039619885 0.005607493 -0.06873773 -0.048367333
0.08359594 0.0780654 -0.020207383 -0.009538487 -0.053180702 -0.06655501 -0.07945761 0.02159825
0.07785734 -0.07337868 -0.027483877 -0.004755333 0.07419326 0.079574846 0.071908854 -0.0830291
-0.059462816 0.037183546 0.07050531 0.08284535 0.04531596 -0.058380984 -0.02669122 0.06724555
-0.081562445 0.051451005 -0.04231964 -0.034708183 -0.0769443 0.042223595 0.023015723 -0.038646754
0.08127084 -0.017803796 -0.01119712 -0.03750878 -0.07832856 0.014370486 -0.052723505 0.024167806
0.048735373 -0.06401649 0.00834813 -0.066140056 0.018375702 -0.060899276 0.055058114 0.017321773
-0.041706644 0.060335375 -0.0039841384 -0.04589344 -0.025792427 -0.0026002899 0.011394344 -0.037048027

lstm.weight_hh_l0 f4 [512, 128]
00000000: 296f 95bd d0c4 85bd dcb4 cbbc 242c 913c
00000010: a98d 14bd c0dd 08bd 800b 463a 8d1e a3bd
00000020: 9aba afbd f369 833d c54d 933d f883 313c
00000030: b22e 87bd 74f1 c63c c8c1 30bc ee64 083d
00000040: 289e 05bd 532e a8bd 0063 92b9 6232 2d3d
00000050: ff8f a4bd 5ce9 ff3c ca32 11bd 77a0 a93d
00000060: 2588 1bbd c02b 64bb 711c 933d 7677 2c3d
00000070: 3876 093d a599 17bd 7be0 ab3d 4af1 a9bd
00000080: 42f5 7b3d 3c6b bf3c 579d 8a3d 00ef 273b
00000090: 30f4 43bc c8b9 1cbd 7bf6 5bbd 1efe 363d
000000a0: 40a4 63bd 8082 ce3b 1abe 423d 7290 553d
000000b0: 689a 243c e484 9bbd e4d5 c4bc b848 95bd
000000c0: 0df2 a2bd 07d1 89bd b0fe d63c bb36 4bbd
000000d0: c0b9 7e3c 24ab a93c 85bf 1dbd ed8e 8e3d
000000e0: c05c e8bb a097 e73c 2d99 9abd ec6b 6abd
000000f0: 820d 583d 67ab 8dbd b959 9dbd 1040 123c
00000100: 4295 133d 8c34 5dbd deaa 8bbd 3a0b 363d
00000110: 4177 8b3d 9a2e 1f3d e0d1 9d3c bbbe b23d
00000120: 33b2 adbd f5b6 933d 12e2 4c3d 0025 35bb
00000130: 482a b0bd 4e36 2c3d b0c7 833c f0cb a1bd
00000140: 05cf 19bd 34c9 d13c a6a2 5e3d 90ea 9fbb
00000150: a0c7 08bc 6c11 86bc ac98 a0bc 605e 14bb
00000160: a9cc a33d f435 883c 2442 c13c 2369 07bd
00000170: 8bab 9e3d 6170 a0bd 1030 db3c d26b 44bd
00000180: 72ed 91bd 6ec3 69bd f0b9 2d3c 48e2 71bd
00000190: 0dce 18bd 5c12 ac3c a776 63bd 8f09 883d
000001a0: edfa 11bd 3c4f 1dbd 18a5 47bc d248 023d
000001b0: 74dd b93c 3a92 3d3d 7ee4 9fbd c173 a73d
000001c0: f22a 8cbd 688c 96bd 2f6f 83bd 668a f8bc
000001d0: 4176 813d 7638 19bd 9cbb 80bd cb9b 33bd
000001e0: 9d46 08bd bea2 3d3d 8608 513d d38d a33d
000001f0: e2a3 463d 48d1 44bc 9083 003c 5ff5 10bd
00000200: 7a8b 763d e0c7 d23b a249 93bd 8095 803b
00000210: 642b 98bd 9e0a 273d 40d2 aebc e08c 043b
00000220: cf74 953d 1aa9 aebd 8898 aebc 2f0e 8a3d
00000230: 203d 0b3b fe4e 723d be73 8dbd 0ed5 5c3d
00000240: 5f51 a23d 4268 a9bd c4c6 c63c e724 af3d
00000250: 15c7 a03d fa44 183d 069e 82bd f387 8e3d
00000260: 6873 8cbd 5aaf a6bd c0c3 f3bb 126e 6c3d
00000270: 6267 39bd d361 a0bd 4058 ebbb e8b9 5ebd
00000280: 9085 13bc 1e3c 133d bc90 a43c f809 2cbc
00000290: b5db a3bd e2c8 1cbd 823c 7c3d 30b6 6cbd
000002a0: f083 9d3b fd1f 84bd 94cd ab3c af30 87bd
000002b0: 4013 0abb 30ca 823b 30e4 06bd f06e 1e3c
000002c0: 293b 983d 0001 e33c 0581 8fbd 16de 193d
000002d0: 1f27 903d f2a3 763d 463b 703d 285b 153c
000002e0: 4072 b4bc b658 443d 7bbe a03d c45b 55bd
000002f0: e10c 983d 3e82 90bd 3aec 593d f7d2 a33d
00000300: c81d a6bd beeb 99bd 2346 933d ca2c 7c3d
00000310: 24d3 a1bd 5944 b03d 09e4 8bbd 7202 95bd
00000320: a25e a5bd f4f5 cd3c 7809 cc3c 8bf3 65bd
00000330: f869 1bbc 165a 4a3d 0c59 84bc 0dea a83d
00000340: 28d9 3fbc 8bdc 903d 2513 a73d a63f 1c3d
00000350: 60d0 0bbc b055 37bc a64a e3bc 8fce 8bbd
00000360: 345b cc3c dec1 ffbc 527b f0bc fbd1 50bd
00000370: fa5b a1bd 2ead 5b3d 6fbe 15bd 904e 2f3c
00000380: 59d8 a83d 2a92 4f3d 1910 28bd d145 b23d
00000390: 5033 dabc 6453 db3c 92ba 643d 90d0 0f3c
000003a0: d0de 03bd 02b4 36bd 31b4 02bd 5fb6 a33d
000003b0: d540 59bd c131 43bd c007 d9ba 28a4 a5bc
000003c0: 00e3 55bb 04cc d53c 5884 9fbc 8925 833d
000003d0: a20d 4cbd 3015 c93b d261 5a3d 64de 66bd
000003e0: ac17 75bd 2cbf 2dbd 9a92 423d 7677 603d
000003f0: f844 03bc 4333 2dbd 1898 773c f4bb 83bc
-0.07296593 -0.0653168 -0.024866514 0.017721243 -0.03626791 -0.033414602 0.0007554814 -0.079648115
-0.08580513 0.064166926 0.07192568 0.010834686 -0.06600703 0.024285056 -0.010788389 0.03329938
-0.032621533 -0.08211961 -0.0002792105 0.042284377 -0.080352776 0.031239204 -0.035448827 0.08282559
-0.037971634 -0.0034816116 0.07183159 0.042106114 0.033560008 -0.03701176 0.083924256 -0.08297975
0.061513193 0.023366563 0.067682914 0.0025624633 -0.011960074 -0.038263112 -0.05370186 0.04467594
-0.055576563 0.006302178 0.047544576 0.052139707 0.010046579 -0.07593706 -0.024027772 -0.072892606
-0.07956324 -0.06729322 0.026244491 -0.049612742 0.015547216 0.020711489 -0.038512725 0.06960855
-0.007091135 0.028270543 -0.07548747 -0.05723183 0.052747257 -0.06917458 -0.07683129 0.0089264065
0.036031015 -0.05400519 -0.068197 0.0444443 0.06809855 0.038862802 0.019265115 0.08727785
-0.084812544 0.07212631 0.050020285 -0.0027640462 -0.086018145 0.042043976 0.01608643 -0.07900226
-0.037550945 0.025608636 0.054354332 -0.004880257 -0.008348376 -0.01636573 -0.01960405 -0.002263926
0.0799802 0.01662729 0.023591109 -0.03305925 0.07747563 -0.078339346 0.026756316 -0.047954388
-0.07125367 -0.057071142 0.010603413 -0.05905369 -0.03730588 0.021004848 -0.055533078 0.06642448
-0.035639692 -0.038405642 -0.0121853575 0.031807728 0.022688605 0.04628203 -0.07807253 0.08176375
-0.06844129 -0.07350999 -0.06417691 -0.030339431 0.06321383 -0.03740736 -0.06285784 -0.043849748
-0.033270467 0.04629778 0.05103352 0.07986035 0.048496135 -0.012012787 0.007843867 -0.035390254
0.06019161 0.0064325184 -0.07191779 0.003924072 -0.07430151 0.04078161 -0.02134049 0.002022557
0.0729767 -0.08528347 -0.021312967 0.067409866 0.002124615 0.059157364 -0.06906842 0.053914122
0.079256766 -0.08271839 0.0242647 0.085519604 0.07850472 0.037175156 -0.06377797 0.06959524
-0.068579495 -0.081389144 -0.0074391067 0.05772216 -0.04526461 -0.078311585 -0.007182151 -0.054376513
-0.009004012 0.035946004 0.020088546 -0.010500424 -0.0800089 -0.038277514 0.061581142 -0.057790935
0.004806988 -0.06451414 0.02097205 -0.066010825 -0.0021068603 0.003991388 -0.03293246 0.009670004
0.07433159 0.027710438 -0.070070304 0.037565313 0.07038712 0.060214944 0.058650278 0.009115972
-0.022027135 0.047936164 0.07848831 -0.052089468 0.074243315 -0.07056092 0.0532038 0.07999223
-0.08111149 -0.075156674 0.07191112 0.06156615 -0.079016 0.08606786 -0.06830604 -0.07275857
-0.080746904 0.025141694 0.024906859 -0.056140464 -0.009485714 0.04940232 -0.016155742 0.08247767
-0.011709489 0.07073315 0.081579484 0.038146637 -0.008533567 -0.011189863 -0.027745556 -0.06826507
0.024945833 -0.031220373 -0.029355679 -0.050981503 -0.07878871 0.053631954 -0.036558565 0.010699883
0.0824439 0.050676502 -0.041030977 0.08704723 -0.026635796 0.026773162 0.05584199 0.0087777525
-0.032194912 -0.044605263 -0.031910125 0.07993769 -0.053040344 -0.04765487 -0.0016558096 -0.020219877
-0.0032636523 0.026098259 -0.019472286 0.06403644 -0.04981769 0.006136559 0.053315945 -0.056364432
-0.05983703 -0.042418644 0.04750309 0.054801427 -0.008012049 -0.042285215 0.015111946 -0.016080834

lstm.bias_ih_l0 f4 [512]
00000000: d1da 0dbd bd3a 9a3d 7e12 723d d950 b23d
00000010: 786b d83c d0ec a0bd 6b82 a9bd bea9 08bd
00000020: c040 6ebb a8d9 cfbc ed3a aebd 144f cb3c
00000030: 158c 18bd d0e0 c6bc fec2 f2bc d2f6 2e3d
00000040: 6d5f 90bd ae42 52bd 8e5e 603d 8722 4cbd
00000050: b078 543c b96b 87bd f828 6abc 8968 aa3d
00000060: 35a9 873d 0096 9a3a 8014 1fbc 4057 183b
00000070: 7f58 9ebd e479 bdbc fbde 963d f270 333d
00000080: 285f 3f3c 45ef 7ebd 6239 b0bd e4db 32bd
00000090: 1a47 233d d678 573d 362c 87bd 504c b83c
000000a0: 7f45 a53d f1d3 53bd c0bd a83c b0e7 80bd
000000b0: 9b17 a13d e3b0 26bd ba2c 0a3d 84f8 babc
000000c0: 585a c33c 9243 433d 7dc8 893d 3880 a5bc
000000d0: 6874 f83c 6826 073d 50b6 a2bb 059a 883d
000000e0: 10a6 adbb ad9b 80bd 604a 3abd 18ff 9ebd
000000f0: 3aa6 4ebd a0b6 cc3b ae40 043d bca6 ffbc
00000100: 98cf 9ebc dfa3 a53d 00d8 5739 a5e9 56bd
00000110: 6ee8 763d 08d2 5ebc 5091 45bc 1e99 90bd
00000120: a0ad 69bb 6a1f 793d 70a7 adbd 714e 14bd
00000130: a2c8 d8bc 8e3a 18bd ff55 ad3d d7aa 9abd
00000140: c096 5cbd 3163 31bd 1f4f 50bd 97a2 ae3d
00000150: c168 9abd 5ffc 9ebd 3e92 563d 06a2 64bd
00000160: 61f7 a5bd 0280 373d 3d67 a13d f0ef eebc
00000170: 8892 12bd 9eb7 273d c4c3 b03c ad84 8e3d
00000180: 3cc1 3ebd bd2d a33d ede7 803d a24e 24bd
00000190: b834 a3bd 6a97 83bd 8144 b03d 1131 9c3d
000001a0: 53ac 913d 7866 9dbd e194 9a3d 6010 0cbc
000001b0: aabc 7e3d 08a3 a53c 7848 ad3c 1233 3d3d
000001c0: 03fa 3cbd cecb 0e3d ed26 b03d 36f4 763d
000001d0: 96df 1abd f870 0fbc ccd7 9dbd 69ed a03d
000001e0: a0f1 77bb 204e 3dbc bc82 b33c 34cd 8dbc
000001f0: a7ef aebd 878d 8f3d b850 b3bd 53ab 9c3d
00000200: a6c5 753d 80f5 29ba fe1d 7fbd 547c 143d
00000210: 4ccb fd3c 83cd 82bd 9eef 83bd 3e4d 483d
00000220: 9a83 97bd c000 40bc 93c5 06bd 8a09 3e3d
00000230: 6d51 85bd 4c65 9c3c d947 963d 2c35 49bd
00000240: 6ef7 a7bd 11d0 8e3d e062 f3bb 444a 74bd
00000250: 5ce4 c1bc a004 7bbd 1c87 8d3c e877 66bd
00000260: 2057 babb 8d97 48bd 8824 24bc 103d d03b
00000270: 16e0 6cbd 813e abbd c668 20bd 0040 113c
00000280: 819f ad3d 5861 b3bd 34e1 0f3d 223d 5d3d
00000290: b8fd 3f3c 4a98 783d b484 053d b86a a3bc
000002a0: d41c 113d 6a72 593d 00cc f5ba 9ed3 4f3d
000002b0: a8f4 273c 3802 f23c 1088 68bc d30c 933d
000002c0: d817 5cbc 2672 3d3d 33e0 95bd 5260 703d
000002d0: 4a16 013d d119 a2bd 34e2 edbc ffb5 a63d
000002e0: eb36 adbd 3813 28bc bcaa d13c 6068 a1bc
000002f0: 0ce2 4bbd fc1a 963c 87ed a9bd 804b dcbb
00000300: c337 5fbd 439b a93d 80a1 323b 7d28 94bd
00000310: c248 023d c032 35bc 4239 efbc 24c0 f43c
00000320: 80cc ad3a 6e03 5e3d 4082 a63b 22fd ddbc
00000330: 4372 a63d 1ad4 583d 8434 9dbd 6578 8f3d
00000340: 7c93 90bd f2b1 763d e36e a9bd 6ae1 aebd
00000350: f378 00bd 3428 a33c 7269 543d d650 563d
00000360: fa96 83bd 5e9a 793d 35a6 8e3d 14ed c63c
00000370: f479 82bc 406e a6ba aae1 40bd 6bfb 953d
00000380: 9f0b a53d 00ed c7bb 6eb6 2a3d 462e 52bd
00000390: e0e7 a3bc 446b bcbc 9df7 803d ea1a 31bd
000003a0: 9053 783c c087 bb3c 30c3 fb3c 3a75 50bd
000003b0: c253 87bd e8f3 8fbd 409f ef3a ce59 513d
000003c0: cf15 a53d 614b 0abd 9ecd 433d fe42 7cbd
000003d0: 9614 87bd 6899 82bd 1ff4 32bd 7c61 92bc
000003e0: 324e 313d 40c0 703b 5cd7 c6bc 30eb a3bc
000003f0: 409a d63a 5aa6 613d 90b4 d2bc a523 8f3d
-0.034632508 0.07530735 0.059099667 0.08706827 0.026418433 -0.078576684 -0.082768284 -0.033365004
-0.0036354512 -0.025372341 -0.08507333 0.02481798 -0.037242968 -0.02427712 -0.029633995 0.042715855
-0.07049451 -0.051333122 0.054777674 -0.049837615 0.012968227 -0.06612343 -0.014291994 0.0832072
0.066240706 0.0011793971 -0.009709477 0.0023245364 -0.07731723 -0.023129411 0.07366749 0.043808885
0.011680402 -0.062239904 -0.08604695 -0.043666735 0.03986273 0.052605473 -0.066002294 0.022497326
0.08069896 -0.051715795 0.020598292 -0.06294191 0.078658305 -0.040696036 0.03373406 -0.02282358
0.02384679 0.047671862 0.06727693 -0.020202741 0.030328944 0.03299561 -0.004965581 0.06670002
-0.005299337 -0.06279693 -0.045481086 -0.07763499 -0.050451495 0.0062473565 0.032288246 -0.031207435
-0.019386098 0.080878966 0.00020584464 -0.052468915 0.060280256 -0.01359988 -0.012058571 -0.07060455
-0.0035656467 0.060820974 -0.08479202 -0.03620762 -0.026462857 -0.037165217 0.08463668 -0.07552116
-0.053854704 -0.043307487 -0.050856706 0.08527105 -0.075395115 -0.0776298 0.05238556 -0.05581858
-0.081038244 0.044799812 0.07881019 -0.029167145 -0.035784274 0.040946595 0.021577723 0.069589
-0.046571 0.07967708 0.06294236 -0.040114053 -0.0796904 -0.06425364 0.08606816 0.07626546
0.07112946 -0.0768556 0.07547928 -0.008548826 0.062191643 0.02021934 0.02115272 0.046191283
-0.046136867 0.034862332 0.086011745 0.06029149 -0.037810884 -0.008754961 -0.077071756 0.078577824
-0.0037833229 -0.011554271 0.021912925 -0.017309763 -0.08541804 0.07009416 -0.0875563 0.07649865
0.060002945 -0.0006483421 -0.062284462 0.03625138 0.030980729 -0.063868545 -0.06442188 0.04890179
-0.07398148 -0.011718929 -0.032903265 0.046395816 -0.06509671 0.01909127 0.073379226 -0.049122974
-0.0820149 0.06973279 -0.0074275583 -0.059641138 -0.02366846 -0.061283708 0.01727634 -0.056266695
-0.0056866556 -0.048972655 -0.010018475 0.0063549355 -0.057830893 -0.08361531 -0.03916242 0.008865356
0.084776886 -0.08758801 0.03512688 0.05401338 0.011718206 0.06069211 0.03259726 -0.019948348
0.035427883 0.05308763 -0.0018752813 0.050738923 0.010251202 0.029542074 -0.014192596 0.071801804
-0.013433419 0.04625144 -0.07318153 0.05868561 0.031515397 -0.0791508 -0.029038526 0.08140182
-0.084577404 -0.010258488 0.025594108 -0.01970309 -0.049776122 0.018323414 -0.08297258 -0.0067228675
-0.054496538 0.08281567 0.0027256906 -0.07234285 0.03180767 -0.011059463 -0.029202107 0.029876776
0.0013259798 0.05420249 0.005081445 -0.027098242 0.081272624 0.05293665 -0.07676032 0.07005385
-0.070593804 0.060228296 -0.08273103 -0.08539088 -0.031365346 0.019916631 0.051858373 0.052323185
-0.06425281 0.06093823 0.06965295 0.02428297 -0.015927292 -0.0012697652 -0.04709021 0.07323345
0.08058857 -0.0061012506 0.041677885 -0.05131366 -0.020008028 -0.023000367 0.062972285 -0.043238558
0.015156642 0.02289188 0.030732721 -0.050893046 -0.066077724 -0.07028943 0.0018281713 0.051111035
0.080608 -0.033763293 0.047803514 -0.061587326 -0.06595723 -0.06376916 -0.043689843 -0.01786875
0.043287463 0.0036735684 -0.024272613 -0.020009607 0.0016372874 0.055090286 -0.025720865 0.069892205

lstm.bias_hh_l0 f4 [512]
00000000: d043 adbd 9035 72bd d1c2 aebd f0e8 1a3c
00000010: 89a8 923d ea6a 183d ce81 753d 899d 25bd
00000020: 263c dbbc b003 7dbd bf89 893d e477 c73c
00000030: b0bd 20bc 2068 77bc d624 2a3d 858f 07bd
00000040: 0480 6abd b9ec ab3d 182e b43c b8a3 94bc
00000050: 401f efbc e80c 1abc 3484 c33c 1e17 123d
00000060: 41f3 a1bd a074 3ebb 00e9 c3bc fe4a 32bd
00000070: 63d6 843d 02e7 643d cc2b a8bd 36ea 183d
00000080: 3899 763c f26c 5b3d 1c2d d5bc 2a67 06bd
00000090: 8a49 b3bd 50a8 febb 588d ea3c c622 123d
000000a0: b066 ec3b 5afb 1abd 00b7 963b 0084 db3c
000000b0: 558e 1fbd 223a 723d 40c4 a83b 8144 a63d
000000c0: 2a4f 4e3d ae2d 0e3d afb0 9a3d 4adc 133d
000000d0: 2cb1 6abd 7914 09bd e8db 513c c009 f8ba
000000e0: f039 973b 0d3f 95bd 4556 58bd f839 4cbc
000000f0: 11dd 903d 72b3 7a3d 3046 06bc b366 8e3d
00000100: 337e a23d c4d8 9ebd 0c53 a0bc 5889 57bc
00000110: 3da6 a23d 34f1 a93c 4eef 663d 208a 12bd
00000120: 3831 aebc 71b3 adbd 96a1 e5bc b962 b1bd
00000130: b6bd 163d e4f0 20bd dcbe 3ebd b08c 36bc
00000140: bb98 5cbd 3047 9e3c 779a 853d 8431 ec3c
00000150: b668 083d 0a4e 623d b240 703d d938 81bd
00000160: 9dda 9c3d fcec a53c 5251 1f3d d8f7 d93c
00000170: 7071 af3c 2874 ca3c a6b8 063d 4192 9f3d
00000180: b091 69bd ef91 69bd 72ad 013d 2377 873d
00000190: 282d 94bd aa5b 0e3d 3f1a 38bd 029a 88bd
000001a0: 0e1e 443d 0a7d 93bd e2cd 2a3d 77ea 953d
000001b0: 80f1 093b aa63 64bd 80be 263c fec9 2a3d
000001c0: fbb7 b13d e11e 07bd 6858 4c3c b14c abbd
000001d0: bc40 de3c 9159 14bd cd81 883d f64f 3a3d
000001e0: 00f7 89bb 9eaf 733d 20df 73bb 400f 003d
000001f0: 7089 063c b4ba a4bd 3a4c 19bd b671 623d
00000200: cf08 7cbd d243 493d 7b3f 0cbd f014 7ebd
00000210: 729d b2bd f725 00bd 6c75 aabc a002 a0bc
00000220: 9e42 6c3d b3ca 9f3d 2e17 88bd aef3 7f3d
00000230: c3e0 7abd f9b7 83bd b512 aabd 4c00 79bd
00000240: da23 543d 4fa5 a83d 1621 96bd 6568 6abd
00000250: 0e22 1e3d dca8 77bd 601c 82bd f596 9e3d
00000260: 7aac 81bd 17a2 abbd da1a 703d bb91 2abd
00000270: 00ca dd3b d6fa 0b3d 58ba 3c3c 402a 303c
00000280: 58a1 693c 5861 ea3c 0e74 703d 65c8 60bd
00000290: 2476 5dbd 5aa8 783d 80b6 4d3a 4195 9f3d
000002a0: d072 bebc 3793 8cbd d848 bebc 143e dd3c
000002b0: d5cb a8bd 4102 9f3d 3953 25bd e602 553d
000002c0: 1dc0 9c3d 15d0 933d 58b3 523c f874 44bd
000002d0: c0bc f1bb 88de 7abc 781b 71bd f25e 9fbd
000002e0: 06d1 693d 81db aabd 2cff 0c3d 90c5 72bc
000002f0: 776f a53d ec19 dbbc 2be4 73bd 861c 613d
00000300: e0b5 3c3c 8075 3fbb 3028 0ebc 6db9 85bd
00000310: 59e6 86bd 65aa 04bd 1984 9f3d ddff 13bd
00000320: b74a 953d 8cd7 053d 6a74 663d d436 b5bc
00000330: 2456 c43c 4cfe 36bd b8e3 ccbc 4372 8e3d
00000340: da39 173d 040b b2bc f4b2 c53c a837 133c
00000350: d43b 3dbd 95c1 4ebd 13eb a4bd 218c 813d
00000360: 009a 1c3b c081 b2ba e527 99bd 9045 1bbc
00000370: 0051 4a3c b28d 7c3d 1160 4cbd f25c 6bbd
00000380: fa02 04bd 8481 ef3c f2c2 ebbc c438 84bd
00000390: 5f0d a03d 3593 873d f990 953d 16e1 713d
000003a0: 70dd 663c 2a66 b2bd b89c a73c 6ee7 3a3d
000003b0: b4c5 f13c cba3 b0bd a852 ee3c a2a3 84bd
000003c0: 72c3 283d 9025 07bd 30ae 7fbc 65a0 47bd
000003d0: cbb0 51bd 60e4 d33b c2f5 4c3d f739 87bd
000003e0: 40e9 743c 35c5 8c3d ca92 753d da72 743d
000003f0: a6f8 0fbd 69e9 823d 538c 9e3d 56ef 96bd
-0.084602 -0.059133112 -0.08533252 0.009454951 0.07161052 0.037211336 0.059938245 -0.04043344
-0.02676208 -0.061771095 0.06715726 0.02434916 -0.00981085 -0.015100509 0.041539036 -0.033095855
-0.05725099 0.08394761 0.021994635 -0.018144473 -0.029189706 -0.009402491 0.02386675 0.035666578
-0.07907725 -0.0029061213 -0.023914814 -0.04352855 0.064862035 0.05588437 -0.082114786 0.037332736
0.015051179 0.053570695 -0.026022486 -0.03281323 -0.08754261 -0.0077715293 0.028631851 0.035677694
0.0072143897 -0.037837364 0.004599452 0.026796341 -0.038954098 0.05913747 0.005150348 0.08118535
0.050368465 0.034711532 0.07553231 0.036098756 -0.05729787 -0.03346679 0.012808777 -0.0018923804
0.004615061 -0.072874166 -0.052816648 -0.012464993 0.07073415 0.06120629 -0.008195445 0.06953182
0.07934227 -0.077561885 -0.01957085 -0.013155304 0.07941864 0.020744897 0.056380562 -0.035776258
-0.021263704 -0.08481491 -0.028031152 -0.08661408 0.036802016 -0.03929223 -0.046568736 -0.011141941
-0.053856593 0.019321054 0.065236025 0.028832205 0.033302985 0.055250205 0.05865545 -0.06309671
0.07658885 0.020254605 0.038895912 0.026607439 0.021416396 0.02471359 0.03289094 0.077915676
-0.057023704 -0.05702394 0.03165955 0.066145204 -0.07235175 0.034755386 -0.044946905 -0.0667
0.047880225 -0.07201584 0.04170025 0.07320111 0.0021048486 -0.05575911 0.010177255 0.04169654
0.086776696 -0.032988433 0.01247225 -0.08364237 0.027130477 -0.03621823 0.066653825 0.045486413
-0.004210353 0.059493653 -0.003721185 0.031264544 0.008211479 -0.08043423 -0.03742621 0.055284224
-0.061531838 0.049136944 -0.034240227 -0.062031686 -0.087214366 -0.031286206 -0.020807944 -0.019532502
0.05768072 0.07802334 -0.06645046 0.06248825 -0.061249506 -0.064315744 -0.08304349 -0.0607913
0.051792003 0.08234655 -0.073305294 -0.057228465 0.038606696 -0.06046377 -0.06353068 0.077436365
-0.063317254 -0.083805256 0.058619358 -0.041642886 0.006768465 0.034174763 0.011519037 0.010752261
0.014259659 0.02861087 0.05870443 -0.05487861 -0.054067746 0.060707428 0.0007847324 0.0779214
-0.023248106 -0.068640165 -0.023228094 0.02700714 -0.08242003 0.07764102 -0.04036257 0.052004717
0.0765383 0.07217423 0.012860142 -0.047963113 -0.007377237 -0.015311845 -0.058864087 -0.07781781
0.057084106 -0.08342648 0.03442304 -0.01481761 0.08077901 -0.026745759 -0.05954377 0.054958843
0.011517972 -0.0029214323 -0.008676574 -0.06529508 -0.06586904 -0.032389063 0.077888675 -0.036132682
0.07289641 0.032676265 0.056263365 -0.02212087 0.023966856 -0.04467611 -0.025010929 0.069553874
0.036920406 -0.021733768 0.024133183 0.008985437 -0.046199635 -0.050477583 -0.08052649 0.063255556
0.0023895502 -0.0013618991 -0.074783124 -0.009477034 0.0123484135 0.06165857 -0.049896304 -0.057461686
-0.0322294 0.029236563 -0.02877948 -0.0645614 0.0781505 0.066198744 0.07303042 0.05905255
0.014090881 -0.087108925 0.020460472 0.045630865 0.029513218 -0.08624991 0.029092148 -0.06476523
0.041202016 -0.032994807 -0.015605494 -0.04873695 -0.051193994 0.0064664334 0.05003906 -0.06602853
0.014948189 0.06873552 0.059954442 0.059679843 -0.03514924 0.06392176 0.077416085 -0.073698685

fc.0.weight f4 [64, 128]
00000000: ad4e 86bd e8d9 043c 802d 1f3b 2039 4bbd
00000010: e91d 5b3d 2701 8d3d 8720 953d 419d 263d
00000020: e4b9 a83d cb85 af3d c0e3 deba 3637 493a
00000030: 645f 0d3c 882d 963c 9695 0d3d 5280 8f3d
00000040: 803e 8d3d 04fa b83c bd8e 873d 00a3 143b
00000050: a8aa 063d 8c1a 203c ae35 82bd cb4e 183d
00000060: fbde 8fbd f40e 803c 5c24 01bd 70ba 9abd
00000070: 3a94 4ebd 6009 eabc fc59 bd3c 0eb1 7abd
00000080: 415b ab3d 5605 af3d 3612 80bd 397a 96bb
00000090: dcb1 953d ebf1 10bd 4e90 273d 43f1 8ebd
000000a0: 1816 083d 8d79 1ebd d06f 1ebc 2a7b 333d
000000b0: 4007 8fbc 314c 00bd 239e acbd 4ffe 4cbc
000000c0: 3009 45bd 7428 123d a46c b2bc c3a5 b7bc
000000d0: 0ae7 b43d 32fb 453d e0e3 d53b 60c0 053c
000000e0: 1847 0fbc f216 7b3d 0f5e edbc d250 d9bc
000000f0: a8e2 083c abcb 6e3d e56e a6bd 4e1a a03d
00000100: fabf a43d b2b5 fabc 90dd fe3c a820 5ebc
00000110: 56e5 b83d c07e c13b 2771 00bd c74a 1cbd
00000120: 786e 573c 1f64 b13d 17df 29bc 5062 bbbb
00000130: 2e8a 4a3d cdba b33d 2b97 a23d 706d d8bb
00000140: fb61 9c3d 00e6 aab9 aecf aabd c0a4 65bd
00000150: a01a 9fbd b207 123d d44b 86bd 4f7a b53d
00000160: 46f7 073d 50f7 6f3c 247f f63c 1341 643d
00000170: 2956 a63d 2e45 98bd 91c4 afbd 884c 073d
00000180: 2870 87bd c007 3b3c 3320 7dbd 739a 5b3d
00000190: a315 563d a4ee 0a3d 1fa2 623d e808 8b3c
000001a0: 0a3f f0bc 822d 193d 96c8 873d 100c 6f3c
000001b0: 0032 da3b 1080 4abd 4a04 5d3d a622 c4bc
000001c0: c2b6 763d 4056 9b3d dbfd 7f3d 9a3b 7c3d
000001d0: 60fb 15bb 14d7 093c 303f 923d 905f 70bc
000001e0: 3ebe 37bd 08f1 9b3c ae70 82bd 7e0b 4d3d
000001f0: 600c 20bc d7ed 98bd 4309 953d dd96 8c3d
00000200: 127e 683d 282e 053d b9f4 48bd a83e a2bd
00000210: 8c8a 543b fcdc cd3c 6344 adbd b02b b83c
00000220: a814 2dbd e4a7 8bbc 3333 843d 1cb4 9f3d
00000230: 72fe e7bc 4749 5cbd f792 1e3d 262b fa3b
00000240: 0a11 4dbc c5c2 66bc 36a0 5f3d e536 25bd
00000250: c7aa b93c 5e97 8fbd 28de 1fbd abff 483c
00000260: cb76 89bd 421e 433d f844 bd3c 00dd 8ebd
00000270: 6eac 393d 366d 4e3d e821 07bd face 5cbd
00000280: 6eee 163d 6eea 7e3d e1b8 883b 3bdb 733d
00000290: 3291 083d c8b9 d7bc 77e1 9c3d e437 9b3c
000002a0: 7132 b33d f0d5 563c 00d0 4b3a b2bc 3d3d
000002b0: 3019 dbbb 3deb 973d 6bf4 a83d b0c8 7c3a
000002c0: db52 70bd 900d df3c 6666 2d3d 194e 863c
000002d0: 986c 883d 7cb8 abbd 3931 a93d ceb4 583d
000002e0: 10ba c6bc 9275 1c3d 238f 85bd 6015 e63c
000002f0: 822c 173d b5b7 9abd 91e1 9cbd 18cd 543d
00000300: 8e13 54bc 48c1 c1bc 08b7 a5bd dd82 56bd
00000310: 44e1 2abd e36b 9d3d bafa 8d3c 524b bb3c
00000320: 25dd 42bd ea5d 6a3d 16f1 4c3d 29f1 02bd
00000330: 99dc aebd 854c 0bbd 6876 5fbd 4c9b f0bc
00000340: 62d4 9abd 4ada 6dbd 6c99 a7bc a4e3 5dbb
00000350: 55c5 a7bd 48cd 103c 70b2 583c bb9b 203c
00000360: 74d5 babc 04cd 9bbd 5a15 6c3d 1825 03bd
00000370: 67d3 8cbd df3a 1ebd 0afd 653d ec3c ebbc
00000380: 5a5c 213d e04d fcbb 50aa 97bb fb97 3ebc
00000390: e0d8 d83b 0c9b 6abd 1d56 9b3d 4bf7 8a3d
000003a0: a0eb 303b 4072 6ebd 2314 df3b 51f8 8f3d
000003b0: 4220 543d 7e60 593d 9ed1 4bbd 85ba 593d
000003c0: 747a aebc f6fc 863d 4f2e 523d e016 73bd
000003d0: 5d01 04bd d7a6 b83d 86a5 29bd 6651 0abd
000003e0: a5ae 5e3d 7422 d93c 4cfa 2ebd 72a8 fdbc
000003f0: 5b0f 7fbd af2b 31bd b485 be3c 0cc2 a1bc
-0.06557975 0.0081085935 0.0024288595 -0.049615026 0.05349532 0.068849854 0.07281595 0.040677313
0.08238581 0.08570441 -0.0017005131 0.00076757686 0.0086287 0.018332258 0.034566484 0.07006897
0.068966866 0.022580154 0.06619022 0.0022680163 0.032877594 0.009771954 -0.06357895 0.037184518
-0.07024952 0.01563213 -0.031528816 -0.075550914 -0.05043433 -0.028568923 0.023114197 -0.06120401
0.08367015 0.085459396 -0.062534735 -0.004592207 0.073093146 -0.03538696 0.040909104 -0.06979611
0.033224195 -0.03869014 -0.009670213 0.04381863 -0.017459512 -0.03132266 -0.084286 -0.012511804
-0.048104465 0.03568311 -0.02178032 -0.022417909 0.0883313 0.04833526 0.006527409 0.008163542
-0.008744977 0.06130118 -0.028975515 -0.026527796 0.00835482 0.0582997 -0.0812662 0.07817517
0.08044429 -0.030604217 0.031111509 -0.013557591 0.09028117 0.0059050024 -0.03135791 -0.03815725
0.013148896 0.08661675 -0.01036813 -0.005718507 0.049448185 0.08775864 0.07938989 -0.006604843
0.07635876 -0.0003259629 -0.08340393 -0.05606532 -0.0776875 0.03565187 -0.06557432 0.08861219
0.033194803 0.014646366 0.030089922 0.055726122 0.081219025 -0.0743507 -0.08582414 0.03303197
-0.06613189 0.011415422 -0.061798286 0.05361409 0.052266728 0.03391899 0.055330392 0.01697202
-0.029326934 0.037396915 0.066300556 0.014590278 0.0066587925 -0.049438536 0.05395917 -0.023942303
0.060232885 0.0758481 0.062497955 0.061580278 -0.0022885427 0.008413095 0.07140958 -0.014671221
-0.044859163 0.019035831 -0.06369148 0.050059788 -0.009768575 -0.07467239 0.07277157 0.068647124
0.056760855 0.03251472 -0.04906151 -0.07922107 0.0032431213 0.025129788 -0.08460309 0.02248177
-0.042256027 -0.01704783 0.06455078 0.07798025 -0.028319571 -0.05378082 0.038714375 0.007634538
-0.012516269 -0.014084523 0.05459615 -0.040335555 0.02266444 -0.07011293 -0.039030224 0.012267987
-0.06712111 0.047636278 0.023104176 -0.06975746 0.045330457 0.05039712 -0.03299132 -0.053908326
0.036848478 0.06223529 0.00417243 0.059535246 0.033341594 -0.026333705 0.076601915 0.01894755
0.08749855 0.01311253 0.000777483 0.046322532 -0.006686352 0.07417915 0.08249744 0.0009642942
-0.058672767 0.027228147 0.042333983 0.016394662 0.066613376 -0.08384797 0.082613416 0.052906804
-0.024258643 0.03819806 -0.06521442 0.028086364 0.03690768 -0.075545706 -0.07660211 0.051953405
-0.012944115 -0.023651734 -0.08091551 -0.052370895 -0.041718736 0.076865934 0.01733147 0.022863064
-0.04757418 0.05721847 0.050034605 -0.03196827 -0.085381694 -0.03400852 -0.05455628 -0.029370926
-0.0756004 -0.058069505 -0.0204589 -0.0033857608 -0.08191935 0.008838005 0.013226137 0.009802754
-0.02280686 -0.07607463 0.05763755 -0.032017797 -0.06876259 -0.038630363 0.05614952 -0.028715573
0.039394714 -0.007699713 -0.004628457 -0.011632915 0.0066176504 -0.05727677 0.07584784 0.06785449
0.0026995912 -0.058214426 0.0068078204 0.070297845 0.051788576 0.053070538 -0.049760453 0.053156395
-0.021298625 0.06591217 0.051313695 -0.059347987 -0.032227863 0.09016197 -0.04141762 -0.033769034
0.054365773 0.026505686 -0.04271917 -0.03096411 -0.062270503 -0.04325455 0.023257114 -0.01974585

fc.0.bias f4 [64]
00000000: f42e 48bd f475 11bd 60c1 a1bd 1ca3 a03d
00000010: 66af 78bd 20d9 3f3d 250d c83c c5f4 d1bc
00000020: e05b c1bb 4e36 84bd 0e8e 543d 5b54 b63d
00000030: 3457 24bd 422c 9c3d 2676 0fbd 6c24 f5bc
00000040: 898c ab3d ce94 6b3d 68c8 ff3c 6fae 18bd
00000050: 08f2 f53c 1ea0 e7bc 8fb9 9b3d 5ee6 babb
00000060: b18b b3bd f396 a73c 6f3c 51bd f8bb 833c
00000070: 1df3 a33d 7ae6 a13c bfdf a8bd 7601 8a3d
00000080: 9996 74bc 5a26 9abd 08d1 0b3d 783f 893d
00000090: 88a3 7abd 1d7f 343d 6b65 083d d465 8dbd
000000a0: d92a 3aba 0213 a43d c8d1 b2bc 3732 03bc
000000b0: 2c9e 4ebd e7a3 6f3d 6002 a13b f7bd b0bd
000000c0: ae16 b5bd cc7f 37bc 10cc 293c 64c2 943d
000000d0: 11ed 55bd 4f4b eb3c 517c a0bd f0e5 5b3d
000000e0: 3867 adbd 7923 a63d bb76 b53d a0fc 583d
000000f0: 005c 06bc 5117 25bd 6f8e 9c3d f774 753d
-0.048872903 -0.03551288 -0.078982115 0.07843611 -0.060714148 0.046837926 0.02442033 -0.02562941
-0.005900845 -0.0645567 0.051893286 0.08902808 -0.040122226 0.07625629 -0.035024785 -0.029924594
0.08376414 0.057514958 0.03122349 -0.037275728 0.030022636 -0.028274592 0.07603752 -0.0057037314
-0.087668784 0.02045772 -0.051083025 0.016080841 0.080053546 0.01976322 -0.08245801 0.0673856
-0.014928483 -0.07526846 0.034134895 0.06701559 -0.06119111 0.044066537 0.033299845 -0.06904188
-0.0007101722 0.08011438 -0.021828547 -0.008007578 -0.050443813 0.05850592 0.004913613 -0.08629983
-0.088422164 -0.011199903 0.010363594 0.072636396 -0.052228037 0.028722433 -0.078362115 0.053686082
-0.08466953 0.081122346 0.08860537 0.052975297 -0.008200645 -0.04030544 0.076443546 0.059926

fc.3.weight f4 [1, 64]
00000000: ed26 d8bd c863 2d3d cc40 843c e8cf afbd
00000010: aa57 aa3d 355b 51bd e1f4 d53b c815 e13d
00000020: b068 f33d 7602 103d dce6 06bd 243f c3bd
00000030: a745 9ebc 19e4 bfbd be49 23bb de19 b23d
00000040: 91c5 f23d ea77 893d 9c49 983d 048e 443d
00000050: 6a0f 65bb f49a 34bd c779 e53d 5b2e d5bd
00000060: cef1 88bd 9a68 c63d 7740 f3bb 01ef 353d
00000070: a00d d8bd 9037 f03d 8371 413c b14a c93d
00000080: f118 debc ac83 00be 1aab c1bc 7ed6 c33d
00000090: 0f24 8cbc 0c09 3cbb b64c e63d 4e5a a33c
000000a0: a2a6 e83c 9de7 1c3d 80ef b6bd 6846 aabd
000000b0: 7038 d4bc 966c dcbd 6226 a7bd 738f afbd
000000c0: feae 043d 6a16 c53d 28cb c63c ee44 803d
000000d0: d80d a53d 28f2 a33d 4c46 693d 77bc ddbc
000000e0: 2074 333d 5ffc 78bd e06a ecbc 44fe 9fbd
000000f0: b4c3 35bd 9cb6 ce3c d40f 62bd 4b9b 92bc
-0.105542995 0.042331487 0.016144179 -0.08584577 0.08317502 -0.051112372 0.006529436 0.109904826
0.11885202 0.035158597 -0.03293501 -0.095335275 -0.019320322 -0.09369678 -0.002491578 0.0869634
0.11854089 0.06712325 0.07435915 0.047987 -0.0034951814 -0.044093087 0.11204868 -0.10409232
-0.066867456 0.0968792 -0.0074234563 0.044417385 -0.10549474 0.11729348 0.011806848 0.098286994
-0.027111502 -0.12550229 -0.023641158 0.095623955 -0.017107038 -0.0028691916 0.112451 0.019940522
0.02839977 0.03830682 -0.089324 -0.0831421 -0.025905818 -0.107628986 -0.08161618 -0.08572283
0.032393448 0.09623416 0.024266794 0.06263147 0.08059281 0.08005172 0.056951806 -0.027067406
0.043811917 -0.060787555 -0.028859556 -0.07812169 -0.04437609 0.02523356 -0.055190876 -0.017896315
